motor_fault_model_quantized.tflite (tflite, 3648 bytes, 3 tensors)

sequential_2/dense_8/MatMul i1 [7, 16] scale=0.011576271 zero_point=0
0.7408813 0.5440847 -0.28940678 -1.3544236 0.3125593 -1.1576271 0.96083045 0.7177288
0.10418644 -0.6135423 -0.12733898 0.30098304 -0.84506774 -0.46305084 -0.41674575 -1.3312712
-0.11576271 0.27783048 0.57881355 0.11576271 0.092610165 -0.9492542 -0.26625422 0.3935932
-0.77561015 0.15049152 -0.56723726 0.34728813 0.6019661 -0.092610165 -0.57881355 -0.20837288
-0.53250843 -0.06945762 -0.25467795 0.28940678 -0.85664403 -0.87979656 -1.0302881 0.729305
0.023152541 -1.0997458 0.32413557 0.4746271 -0.5903898 -0.21994914 0.43989828 -0.97240674
0.32413557 -0.33571184 -0.15049152 0.17364407 -0.023152541 -0.06945762 -0.6019661 -0.023152541
0.5093559 0.38201693 0.18522033 -0.55566096 0.3125593 0.7061525 -0.06945762 0.42832202
-0.55566096 -0.5440847 0.7177288 0.3125593 0.092610165 -0.6135423 -0.17364407 -0.810339
-0.729305 0.32413557 -0.32413557 0.4051695 0.7408813 0.12733898 -0.25467795 0.33571184
-1.0997458 0.16206779 0.38201693 -0.7061525 -1.4701864 0.23152542 -0.69457626 0.5209322
-0.37044066 -0.64827114 0.08103389 -0.5903898 0.42832202 -0.6135423 0.64827114 0.5440847
0.0 -1.0534407 -0.33571184 -0.85664403 -0.023152541 0.27783048 -1.0187118 -1.2039322
0.6019661 0.48620337 -1.284966 -0.9029491 0.15049152 -0.3125593 0.53250843 0.6135423
00000000: 402f e78b 1b9c 533e 09cb f51a b7d8 dc8d
00000010: f618 320a 08ae e922 bd0d cf1e 34f8 ceee
00000020: d2fa ea19 b6b4 a73f 02a1 1c29 cded 26ac
00000030: 1ce3 f30f fefa ccfe 2c21 10d0 1b3d fa25
00000040: d0d1 3e1b 08cb f1ba c11c e423 400b ea1d
00000050: a10e 21c3 8114 c42d e0c8 07cd 25cb 382f
00000060: 00a5 e3b6 fe18 a898 342a 91b2 0de5 2e35

sequential_2/dense_7/MatMul i1 [16, 32] scale=0.009488245 zero_point=0
0.18976489 -0.3605533 -0.2751591 -0.009488245 -0.3226003 0.41748276 0.5313417 0.26567084
0.0853942 0.24669436 -0.13283542 -0.11385894 -0.21822962 -0.2561826 -0.35106504 -0.48390046
-0.29413557 -0.43645924 -0.13283542 -0.19925314 -0.26567084 -0.3415768 -0.13283542 0.14232367
-0.11385894 -0.11385894 -0.5598064 -0.76854783 0.28464735 -0.3605533 -0.18976489 0.48390046
0.48390046 -0.33208856 -0.06641771 0.05692947 0.15181191 -0.009488245 0.26567084 0.13283542
0.14232367 0.09488244 -0.41748276 0.028464735 -0.30362383 -0.028464735 -0.14232367 -0.15181191
0.0 0.03795298 -0.5692947 -0.43645924 -0.5977594 -0.07590596 0.10437069 0.16130015
0.4079945 -0.19925314 -0.10437069 -0.12334718 -0.50287694 -0.4933887 0.009488245 -0.028464735
0.19925314 0.21822962 0.7305948 0.22771788 0.16130015 0.23720612 0.0 -0.2751591
0.13283542 0.04744122 -0.22771788 0.30362383 -0.09488244 0.48390046 0.45543575 0.30362383
-0.2561826 0.6546889 -0.15181191 -0.26567084 0.028464735 0.18027665 0.10437069 -0.21822962
-0.20874138 0.7495713 0.33208856 0.03795298 -0.18027665 0.15181191 0.16130015 -0.5977594
-0.01897649 0.6831536 0.19925314 0.76854783 -0.52185345 0.24669436 -0.009488245 -0.16130015
0.04744122 0.0 0.23720612 -0.04744122 0.79701257 0.18027665 0.5787829 0.67366534
-0.15181191 0.28464735 0.58827114 0.18027665 0.20874138 0.0 -0.43645924 0.028464735
0.01897649 -0.11385894 0.31311208 1.2050071 0.06641771 0.7211066 -0.4079945 -0.14232367
0.3415768 -0.54082996 0.37952977 0.1707884 -0.13283542 0.69264185 0.28464735 -0.04744122
0.2561826 -0.03795298 0.30362383 0.4459475 -0.39850628 -0.10437069 0.14232367 -0.11385894
-0.37004155 -0.20874138 0.11385894 0.2561826 0.3415768 0.3415768 -0.06641771 0.009488245
0.028464735 0.3226003 -0.5503182 -0.28464735 -0.11385894 -0.26567084 0.14232367 0.37004155
-0.7021301 0.18027665 -0.48390046 -0.37004155 0.79701257 -0.33208856 0.13283542 0.5787829
-0.6452006 -0.18976489 0.3226003 -0.48390046 -0.47441223 0.35106504 -0.19925314 -0.50287694
0.23720612 0.2561826 0.1707884 0.20874138 0.38901803 0.23720612 0.5692947 0.009488245
0.0 -0.77803606 0.05692947 -0.18027665 0.37952977 -0.3226003 0.50287694 0.20874138
0.18976489 -0.69264185 -0.47441223 -0.5503182 -0.42697102 0.28464735 0.18027665 -0.6831536
0.18976489 0.01897649 -0.37952977 0.09488244 -0.4079945 -0.5313417 -0.33208856 -0.54082996
0.09488244 -0.8824068 -0.19925314 -0.54082996 -0.6831536 -0.79701257 -0.1707884 0.04744122
0.18976489 -0.30362383 -0.6167359 -0.6357124 -0.4933887 -0.45543575 -0.5123652 0.11385894
0.06641771 -0.04744122 -0.028464735 -0.12334718 0.04744122 -0.2561826 0.16130015 0.0853942
0.03795298 0.5692947 -0.26567084 -0.01897649 -0.10437069 -0.03795298 -0.14232367 -0.1707884
0.8065008 0.01897649 -0.48390046 -0.4459475 -0.39850628 -0.2751591 -0.04744122 0.7305948
0.6167359 -0.09488244 0.12334718 -0.19925314 -0.31311208 -0.09488244 -0.11385894 0.06641771
00000000: 14da e3ff de2c 381c 091a f2f4 e9e5 dbcd
00000010: e1d2 f2eb e4dc f20f f4f4 c5af 1eda ec33
00000020: 33dd f906 10ff 1c0e 0f0a d403 e0fd f1f0
00000030: 0004 c4d2 c1f8 0b11 2beb f5f3 cbcc 01fd
00000040: 1517 4d18 1119 00e3 0e05 e820 f633 3020
00000050: e545 f0e4 0313 0be9 ea4f 2304 ed10 11c1
00000060: fe48 1551 c91a ffef 0500 19fb 5413 3d47
00000070: f01e 3e13 1600 d203 02f4 217f 074c d5f1
00000080: 24c7 2812 f249 1efb 1bfc 202f d6f5 0ff4
00000090: d9ea 0c1b 2424 f901 0322 c6e2 f4e4 0f27
000000a0: b613 cdd9 54dd 0e3d bcec 22cd ce25 ebcb
000000b0: 191b 1216 2919 3c01 00ae 06ed 28de 3516
000000c0: 14b7 cec6 d31e 13b8 1402 d80a d5c8 ddc7
000000d0: 0aa3 ebc7 b8ac ee05 14e0 bfbd ccd0 ca0c
000000e0: 07fb fdf3 05e5 1109 043c e4fe f5fc f1ee
000000f0: 5502 cdd1 d6e3 fb4d 41f6 0deb dff6 f407

sequential_2/dense_6/MatMul i1 [32, 9] scale=0.008838785 zero_point=0
-0.4154229 -0.05303271 0.1149042 0.14142056 0.12374299 0.10606542 -0.26516354 -0.49497196
0.15025935 0.8750397 -0.32703504 -0.14142056 0.01767757 -0.21213084 0.07954907 -0.07954907
0.20329206 0.10606542 -0.18561448 0.1149042 -0.38006774 0.32703504 0.13258177 0.18561448
-0.24748598 0.026516356 -0.6540701 -0.6010374 0.3977453 0.14142056 -0.05303271 0.5833598
-0.1679369 -0.1679369 -0.01767757 -0.13258177 0.1149042 0.15025935 0.4596168 0.097226635
0.0 0.12374299 0.56568223 0.6717476 0.03535514 -0.8485234 -0.44193923 -0.08838785
-0.07071028 -0.05303271 -0.15909813 0.31819627 0.07071028 0.26516354 -0.43310046 0.08838785
0.15025935 -0.01767757 0.097226635 -0.01767757 -0.026516356 -0.21213084 0.37122896 0.15909813
0.097226635 0.4242617 0.13258177 0.32703504 0.0 0.9899439 -0.061871495 0.32703504
-0.21213084 -0.1679369 0.061871495 -0.01767757 -0.026516356 -0.07071028 -0.73361915 -0.18561448
-0.51264954 -0.05303271 -0.1149042 0.008838785 -0.026516356 0.044193923 -0.07071028 -0.8131682
0.13258177 0.31819627 0.18561448 0.31819627 -0.18561448 -0.03535514 -0.38890654 -0.28284112
0.83968455 -0.26516354 0.24748598 -0.2916799 0.008838785 0.05303271 0.008838785 0.07954907
-0.044193923 -0.73361915 -0.3977453 -1.0429766 0.574521 0.07071028 -0.68058646 -0.45077804
0.026516356 0.1149042 0.05303271 0.15025935 0.13258177 0.07071028 0.1767757 0.5833598
0.4772944 0.12374299 -0.5214883 0.03535514 0.13258177 -0.43310046 -0.37122896 -0.10606542
-0.008838785 -0.026516356 -0.4772944 -0.3005187 0.12374299 -0.026516356 -0.30935746 0.14142056
-0.13258177 0.5303271 -0.20329206 -0.55684346 0.4684556 -0.19445327 -0.061871495 -0.3623902
0.37122896 -0.10606542 0.026516356 -0.061871495 -0.05303271 0.05303271 -0.44193923 0.73361915
0.38006774 0.3005187 0.26516354 0.15025935 -0.44193923 0.53916585 0.07071028 -0.34471262
0.20329206 -0.3358738 0.7247804 0.061871495 0.026516356 0.061871495 0.1149042 -0.3358738
0.14142056 -0.43310046 -0.044193923 -0.6187149 0.05303271 0.15909813 0.3977453 0.05303271
0.03535514 0.5921986 -0.2298084 0.07071028 0.07071028 -0.45077804 0.63639253 -0.19445327
-0.097226635 -0.2386472 0.66290885 -0.097226635 -0.1149042 -0.19445327 -0.25632477 -0.28284112
0.061871495 0.03535514 0.37122896 0.68942523 0.10606542 -0.25632477 0.18561448 0.3623902
0.2298084 0.07954907 0.10606542 0.12374299 0.7512967 0.5921986 0.19445327 0.22096962
-0.2298084 -0.008838785 0.10606542 -0.05303271 -0.061871495 -0.5921986 0.1767757 0.698264
0.07071028 -0.061871495 0.061871495 0.061871495 0.008838785 -0.05303271 -0.4242617 0.24748598
0.38006774 -0.1767757 0.4154229 -0.026516356 0.19445327 -0.061871495 0.2386472 -0.38890654
-0.18561448 -0.6540701 0.8308458 -0.1679369 0.061871495 0.19445327 0.07071028 -0.044193923
-0.45077804 0.3977453 0.03535514 1.1225257 -0.4772944 -0.2916799 0.10606542 -0.15025935
-0.18561448 -0.14142056 0.026516356 -0.14142056 -0.3358738 0.008838785 -0.03535514 0.01767757
00000000: d1fa 0d10 0e0c e2c8 1163 dbf0 02e8 09f7
00000010: 170c eb0d d525 0f15 e403 b6bc 2d10 fa42
00000020: eded fef1 0d11 340b 000e 404c 04a0 cef6
00000030: f8fa ee24 081e cf0a 11fe 0bfe fde8 2a12
00000040: 0b30 0f25 0070 f925 e8ed 07fe fdf8 adeb
00000050: c6fa f301 fd05 f8a4 0f24 1524 ebfc d4e0
00000060: 5fe2 1cdf 0106 0109 fbad d38a 4108 b3cd
00000070: 030d 0611 0f08 1442 360e c504 0fcf d6f4
00000080: fffd cade 0efd dd10 f13c e9c1 35ea f9d7
00000090: 2af4 03f9 fa06 ce53 2b22 1e11 ce3d 08d9
000000a0: 17da 5207 0307 0dda 10cf fbba 0612 2d06
000000b0: 0443 e608 08cd 48ea f5e5 4bf5 f3ea e3e0
000000c0: 0704 2a4e 0ce3 1529 1a09 0c0e 5543 1619
000000d0: e6ff 0cfa f9bd 144f 08f9 0707 01fa d01c
000000e0: 2bec 2ffd 16f9 1bd4 ebb6 5eed 0716 08fb
000000f0: cd2d 047f cadf 0cef ebf0 03f0 da01 fc02
