motor_fault_model.tflite (tflite, 5996 bytes, 6 tensors)

sequential_2/dense_8/BiasAdd/ReadVariableOp f4 [7]
000000 fa 7b 26 3f 7f 74 ee 3e e7 fa 92 3e c2 6a a2 bd
       0.65032923 0.46573254 0.28707048 -0.07930519
000010 13 21 69 bf 21 3a 35 bf 5b f8 2f bf
       -0.9106609 -0.7079182 -0.68738335

sequential_2/dense_7/BiasAdd/ReadVariableOp f4 [16]
000000 ef b4 05 3f 76 a0 56 3f 41 eb dd be 83 ac 41 be
       0.5222921 0.83838594 -0.43343547 -0.18913464
000010 b6 79 1b 3f 6d 2d ef bc 48 d3 e4 3e 05 67 71 3f
       0.6073259 -0.029196465 0.44692445 0.9429782
000020 9d 73 0a 3e 92 89 42 be b2 e4 a1 3e 2c 34 7d 3e
       0.13520665 -0.18997791 0.31619793 0.24726933
000030 fc 5b d4 be 8a 99 6b be cc ba d1 bd 6f ee 05 bf
       -0.41476429 -0.23007789 -0.10240707 -0.52316946

sequential_2/dense_6/BiasAdd/ReadVariableOp f4 [32]
000000 61 7b 80 3e 65 76 59 bd e4 03 ff be 1b 93 a6 be
       0.2509413 -0.053091425 -0.49807656 -0.32534108
000010 c8 77 18 bf c4 d1 dd bd f1 9b 5f 3e 26 5a a9 bd
       -0.5955777 -0.10831025 0.2183683 -0.082691476
000020 fb 20 24 3e 65 95 a6 3e 34 b9 9e be 84 52 67 3d
       0.16028206 0.32535854 -0.31000674 0.056475177
000030 dc 6c 18 be 68 28 a8 bd 41 5d 17 bf fd b3 c9 be
       -0.14885277 -0.08210832 -0.5912667 -0.39395133
000040 b7 5b 0e be af 2d 14 be 8b 9d 1f be 8c e8 ad be
       -0.13902174 -0.14470552 -0.15587442 -0.33966482
000050 68 74 90 be fd b5 53 be c8 c6 38 bf 67 c3 2d 3e
       -0.2821381 -0.20674892 -0.72178316 0.16969071
000060 ed 08 c2 3e 76 73 de be c3 27 54 bd 39 e6 3a be
       0.37897435 -0.43447465 -0.051795732 -0.18251885
000070 c4 32 91 be 9a 0c 82 be a8 f8 3e 3d 33 ee 74 3e
       -0.28359044 -0.2540024 0.046623856 0.23918991

sequential_2/dense_6/MatMul f4 [32, 9]
000000 b9 ee d4 be 97 cb 65 bd b0 7d e9 3d ee 39 14 3e
       -0.4158838 -0.05610236 0.11400926 0.14475223
000010 53 a6 01 3e c9 0c dc 3d da 26 87 be e0 7c ff be
       0.12661104 0.10744626 -0.2639683 -0.4989996
000020 de ae 17 3e 3a b7 5f 3f 8b a8 a6 be d8 05 0e be
       0.148128 0.87388957 -0.32550463 -0.13869417
000030 ac b7 95 3c 68 b0 59 be 0c 9f 9f 3d 1a c8 a3 bd
       0.018276058 -0.212587 0.07794008 -0.07997151
000040 72 91 4f 3e 20 4f d8 3d 44 15 3a be 20 67 e4 3d
       0.20270327 0.10561967 -0.18172175 0.11152482
000050 71 74 c1 be fe 9c a7 3e d0 55 08 3e 14 41 3b 3e
       -0.3778415 0.32736963 0.13313985 0.18286544
000060 18 cc 80 be 03 ea fa 3c 4c 74 26 bf 34 f4 18 bf
       -0.2515571 0.030629164 -0.65021205 -0.59747624
000070 67 80 c9 3e 42 e0 11 3e ca ae 55 bd 16 64 15 3f
       0.39355776 0.14245704 -0.052168645 0.58355844
000080 c6 d2 2a be 76 55 2c be f4 f2 7c bc 69 09 05 be
       -0.16681966 -0.16829476 -0.015438784 -0.12991871
000090 31 6a ea 3d 84 d5 19 3e 9b 6e ec 3e 51 05 c0 3d
       0.11446036 0.15022856 0.46178135 0.09376014
0000a0 af 83 27 bb cf 30 fd 3d 5a f2 10 3f e2 73 2c 3f
       -0.0025560667 0.12362825 0.566198 0.67364323
0000b0 b4 25 16 3d c8 e6 58 bf b6 94 e3 be 2b 2d b0 bd
       0.03665705 -0.84727144 -0.44449395 -0.08602365
0000c0 b8 f0 97 bd c5 a3 54 bd 2c f5 25 be 54 bd a4 3e
       -0.0741896 -0.051913995 -0.16206807 0.32175696
0000d0 1f 69 88 3d 9f cb 89 3e 00 99 de be 48 a6 af 3d
       0.06660675 0.26913163 -0.43476105 0.085766375
0000e0 3a f7 1c 3e e6 0f 7d bc 2c 15 cd 3d 58 56 96 bc
       0.15328684 -0.015445685 0.10013804 -0.018351719
0000f0 3f 25 bb bc bd 9e 59 be 8e 54 be 3e 59 53 25 3e
       -0.022844909 -0.2125196 0.37173885 0.16145076
000100 5f 0f c6 3d 1b 5d db 3e 1e c2 03 3e 43 68 a9 3e
       0.096709006 0.4284447 0.12867019 0.33087358
000110 db f9 aa 3a d1 5d 7d 3f 3c 75 85 bd 39 9d a7 3e
       0.0013044433 0.9897128 -0.06516501 0.3273714
000120 ed a2 57 be 01 eb 28 be ee 16 83 3d 53 5b 91 bc
       -0.21058245 -0.16495897 0.06400858 -0.017743742
000130 e5 a2 b8 bc da a5 8c bd 05 db 3c bf 20 a8 3e be
       -0.022538612 -0.06867571 -0.737717 -0.18618822
000140 aa 30 03 bf 81 28 55 bd e9 2a e7 bd 4e 32 12 3c
       -0.5124613 -0.05204058 -0.11287481 0.008923126
000150 34 55 c8 bc 00 af 24 3d 47 9c 95 bd 64 7a 50 bf
       -0.02445469 0.040205956 -0.07305198 -0.81436753
000160 a2 48 08 3e be 1b a5 3e 47 aa 40 3e 16 68 a1 3e
       0.13308957 0.32247728 0.18814956 0.31524724
000170 88 08 41 be b0 38 0a bd a5 8e c7 be 12 9b 92 be
       -0.1885091 -0.033745468 -0.38976017 -0.28633934
000180 09 8d 56 3f 52 36 86 be 24 82 7a 3e eb b0 95 be
       0.8380895 -0.26213318 0.24463707 -0.2923654
000190 53 df ff 3b a9 a9 6a 3d 18 6c d2 3b 6d 22 9b 3d
       0.0078086047 0.057290707 0.006421577 0.075749256
0001a0 90 cb 38 bd d1 1b 3c bf db db ca be cf 3e 85 bf
       -0.045116007 -0.73479944 -0.3962086 -1.0409793
0001b0 e5 1b 14 3f f2 5a 92 3d cc 1a 2e bf bf 9c e5 be
       0.57855064 0.07146253 -0.6800964 -0.4484615
0001c0 aa 08 c8 3c ec 13 e7 3d 30 56 49 3d 83 10 19 3e
       0.024418194 0.11283097 0.04915446 0.14947705
0001d0 d2 b9 06 3e 94 91 8b 3d 56 a0 36 3e 1b 16 16 3f
       0.13156822 0.06814876 0.17834601 0.5862748
0001e0 72 21 f6 3e d5 f1 fc 3d 6e ce 04 bf a4 7f 19 3d
       0.48072392 0.12350813 -0.51877487 0.037475243
0001f0 62 04 07 3e c3 ee db be 6c 6f be be aa db d9 bd
       0.13185266 -0.42955598 -0.37194383 -0.10637601
000200 6f ef fa bb 0f d8 e7 bc 72 95 f4 be 39 16 99 be
       -0.0076579372 -0.028301267 -0.47770268 -0.29899767
000210 d2 d6 01 3e 4b 04 eb bc c9 eb 9f be 57 ab 10 3e
       0.12679604 -0.02868857 -0.31234577 0.14127861
000220 76 ed 03 be 56 1b 08 3f 23 43 50 be de 02 0e bf
       -0.12883553 0.5316671 -0.2033811 -0.55473125
000230 3c 80 ee 3e 96 e4 48 be be 8f 85 bd b5 a6 b7 be
       0.4658221 -0.19618449 -0.06521557 -0.35869375
000240 54 2d be 3e 7a a1 dc bd b8 ff c5 3c ec c7 6b bd
       0.37143958 -0.10772987 0.024169788 -0.057563707
000250 44 dc 64 bd 79 db 56 3d 67 3a e1 be fe 90 3c 3f
       -0.055874124 0.0524554 -0.4398987 0.7365874
000260 ca 8a c3 3e d4 c5 9b 3e d9 6b 89 3e 64 04 17 3e
       0.38191825 0.30424368 0.26840094 0.14747769
000270 c4 f5 e1 be b7 a3 0a 3f 85 db 88 3d 54 c8 b1 be
       -0.44132817 0.5415606 0.06682495 -0.3472315
000280 1d 85 50 3e a0 4d ac be 1f 84 38 3f be 31 79 3d
       0.20363279 -0.33652973 0.720766 0.060838453
000290 67 d8 f2 3c 07 5a 71 3d e5 63 eb 3d 75 14 ab be
       0.029644204 0.058923747 0.11493663 -0.33414045
0002a0 e2 59 10 3e 87 2c dd be b5 25 30 bd de 66 1d bf
       0.14096788 -0.43198034 -0.04300471 -0.6148509
0002b0 4a 4d 66 3d ff 44 25 3e 48 d2 c9 3e be 0a 67 3d
       0.056226052 0.16139601 0.39418244 0.05640673
0002c0 d9 9a 19 3d 75 0b 18 3f 40 07 6b be e1 4d 8d 3d
       0.03750119 0.5939248 -0.22951984 0.0689962
0002d0 41 63 8d 3d dd 70 e7 be ec cd 22 3f 99 d6 46 be
       0.06903697 -0.45203295 0.6359546 -0.194178
0002e0 23 6e c9 bd 5c f6 72 be 47 af 29 3f 0b ef be bd
       -0.0983546 -0.23726791 0.66283077 -0.093229376
0002f0 00 20 e4 bd fb 01 46 be c6 23 84 be ca 3a 92 be
       -0.11138916 -0.19336693 -0.25808543 -0.28560477
000300 1d bf 87 3d 92 39 00 3d d7 54 bc 3e 4c ef 2f 3f
       0.06628249 0.031304903 0.36783478 0.68724513
000310 de 10 d8 3d 95 e5 81 be 35 5f 42 3e c8 50 ba 3e
       0.10550092 -0.2537047 0.18981631 0.36389756
000320 e1 bc 6e 3e 05 7f a2 3d f9 1f dc 3d a0 e1 00 3e
       0.23314239 0.07934383 0.10748286 0.12586069
000330 89 41 40 3f cf 4d 17 3f 85 f1 45 3e 13 eb 62 3e
       0.751 0.591031 0.19330414 0.22159986
000340 df f8 6a be cd 7b e8 bb c1 1a d1 3d 9c f5 55 bd
       -0.229465 -0.0070948363 0.10210181 -0.052236184
000350 7a 67 81 bd 52 0d 18 bf 17 56 34 3e 13 86 32 3f
       -0.06318565 -0.59395325 0.17610966 0.6973583
000360 1b 05 8e 3d 3b c5 83 bd e2 3d 6d 3d a4 71 7b 3d
       0.069345675 -0.06434103 0.057920344 0.061387673
000370 fa df 0d 3c ea 05 57 bd 50 2e da be 7c cc 79 3e
       0.008659357 -0.052495874 -0.4261346 0.24394411
000380 54 3e c4 3e 9b a3 38 be 54 e3 d2 3e 25 16 de bc
       0.38328803 -0.1803116 0.41189063 -0.027110169
000390 93 c1 44 3e 92 ce 77 bd 5a 23 72 3e 7c e8 c8 be
       0.19214468 -0.060499735 0.23646298 -0.39239872
0003a0 09 18 3b be 66 2d 27 bf f3 80 54 3f a6 f0 27 be
       -0.18270887 -0.6530365 0.8300926 -0.16400394
0003b0 3b af 7f 3d f4 80 45 3e 01 8d 90 3d 11 df 42 bd
       0.062422972 0.19287473 0.07058144 -0.047576014
0003c0 3c 3c e5 be 53 f8 c9 3e b0 d9 0a 3d ec ae 8f 3f
       -0.44772518 0.3944727 0.03389901 1.1225257
0003d0 99 17 f6 be 46 88 95 be d0 48 e0 3d f0 22 19 be
       -0.4806488 -0.2920553 0.10951388 -0.14954734
0003e0 74 cf 3a be 86 02 13 be 12 dc f7 3c 72 c5 0e be
       -0.182432 -0.14356431 0.030256305 -0.13942507
0003f0 09 bb a9 be 03 b4 fd 3b c3 90 1f bd fa b1 6a 3c
       -0.3315051 0.0077424063 -0.038956415 0.0143246595

sequential_2/dense_7/MatMul f4 [16, 32]
000000 35 d0 40 3e 6f bb b7 be 8c be 8b be 1c 06 15 bc
       0.18829425 -0.35885188 -0.27293813 -0.009095695
000010 87 2c a3 be 2b aa d4 3e f5 3b 08 3f 88 94 88 3e
       -0.3186991 0.41536078 0.5321649 0.2667582
000020 45 a7 ad 3d a1 b0 7d 3e bf af 03 be a7 fc e6 bd
       0.0847917 0.2477441 -0.1286001 -0.11278658
000030 11 25 63 be a1 52 84 be 1b d2 b2 be 42 df f7 be
       -0.22182108 -0.2584429 -0.34925923 -0.4841252
000040 7f 34 94 be bc 0a e1 be c0 4e 08 be b6 e7 4a be
       -0.289463 -0.43953502 -0.1331129 -0.19814953
000050 c8 fd 87 be a9 05 ad be dd 18 07 be 2f 42 12 3e
       -0.26560807 -0.3379338 -0.13193078 0.1428306
000060 8d 28 f0 bd 94 57 e5 bd b2 72 10 bf 46 2c 44 bf
       -0.117264844 -0.11198345 -0.5642501 -0.76630056
000070 c0 bc 90 3e 73 be ba be 44 cd 3d be 5e ac f6 3e
       0.28269005 -0.36473426 -0.18535334 0.4817838
000080 d6 c2 f9 3e 79 ce a9 be e0 d5 8a bd fb ca 5a 3d
       0.4878146 -0.3316534 -0.06779075 0.053416234
000090 0f da 1c 3e bd 39 53 bc 04 08 89 3e 3d ae 0a 3e
       0.15317558 -0.012892184 0.26763928 0.13543029
0000a0 9c 01 0f 3e 11 a9 bd 3d 06 3f d5 be fa 14 d4 3c
       0.13965458 0.092607625 -0.41649646 0.025888909
0000b0 1b ae 9a be d1 aa f8 bc 58 19 0e be 3b 1b 1c be
       -0.30210957 -0.03035489 -0.13876855 -0.15244763
0000c0 b4 8e 1e 3b cf a8 1d 3d 84 90 10 bf 38 45 de be
       0.0024193944 0.038491067 -0.56470513 -0.43412185
0000d0 dc 17 1a bf 3b f3 9a bd 04 4c dd 3d 0a 90 26 3e
       -0.60192657 -0.07565924 0.108055145 0.16265884
0000e0 60 77 ce 3e 4e 23 50 be 6a e5 cc bd d8 f5 f6 bd
       0.4032545 -0.20325968 -0.10004695 -0.1205861
0000f0 0d c0 00 bf 3b fb fe be d5 db a0 3b c5 e8 fc bc
       -0.50293046 -0.4980105 0.0049090185 -0.030872712
000100 ee 95 4d 3e aa 4c 5b 3e 49 a9 3a 3f a4 c5 6d 3e
       0.20076725 0.21415964 0.7291456 0.23219925
000110 0b ea 28 3e bc 11 77 3e 44 f1 dd 3a bc 00 8e be
       0.1649553 0.24127859 0.0016932865 -0.27734935
000120 19 b4 08 3e e1 93 33 3d 7a 26 66 be 92 87 9d 3e
       0.13349952 0.0438422 -0.22475615 0.30767494
000130 6d 84 c8 bd 8a e0 f6 3e 80 77 e7 3e a4 e5 99 3e
       -0.09790883 0.48218185 0.4520836 0.30058014
000140 e0 4f 85 be a1 40 28 3f 3a 93 1c be 27 37 8a be
       -0.26037502 0.65723616 -0.15290537 -0.26995203
000150 45 b8 f6 3c b0 b2 35 3e b2 62 cc 3d 1a 7f 5d be
       0.030117163 0.17743945 0.09979762 -0.21630517
000160 d8 9f 59 be 80 82 3f 3f 86 62 a9 3e 73 cf 22 3d
       -0.21252382 0.748085 0.3308298 0.03974862
000170 c7 4e 3c be ae 4b 20 3e df 14 23 3e b5 cc 18 bf
       -0.18389426 0.1565387 0.1592593 -0.5968736
000180 dc dd af bc 72 51 2f 3f 37 95 47 3e 10 41 45 3f
       -0.021468095 0.6848365 0.19490515 0.770524
000190 81 40 06 bf 9c ea 77 3e 10 4f a0 bb 56 bd 22 be
       -0.52442175 0.2421059 -0.0048922375 -0.15892538
0001a0 e1 31 4d 3d 79 97 ba 39 d0 d8 6f 3e 41 eb 33 bd
       0.050096396 0.0003558954 0.23422551 -0.043925527
0001b0 45 9f 4b 3f b7 f1 3c 3e d1 be 13 3f 2d 3c 2d 3f
       0.795399 0.18451582 0.5771304 0.67669946
0001c0 5f ab 1a be 78 05 94 3e 94 b6 17 3f 6a 94 34 3e
       -0.15104435 0.28910422 0.5926297 0.1763474
0001d0 f0 51 56 3e 6b 0a 62 3b d2 90 e0 be 7d 52 c6 3c
       0.20929694 0.0034491073 -0.4386049 0.024209255
0001e0 10 e5 98 3c e7 90 e8 bd 29 e6 9d 3e ac 3d 9a 3f
       0.018663913 -0.11355763 0.3083966 1.2050071
0001f0 43 88 84 3d 42 48 39 3f 5a b4 d1 be 02 f8 12 be
       0.06471302 0.7237588 -0.4095791 -0.1435242
000200 a0 fe ad 3e 98 aa 09 bf 7c 95 c3 3e e9 ea 32 3e
       0.33983326 -0.5377593 0.38199985 0.17472424
000210 5d 64 0b be fc af 30 3f 39 e2 92 3e 59 a1 48 bd
       -0.13612504 0.6901853 0.2868822 -0.048981998
000220 cd 65 83 3e 5c 68 19 bd 39 32 99 3e b1 85 e2 3e
       0.25663605 -0.03745304 0.2992113 0.44242623
000230 e7 8b cc be 50 e4 db bd 3a dd 0d 3e 16 4a ea bd
       -0.39950487 -0.107369065 0.13853922 -0.11439912
000240 ff 9f bf be 08 3f 58 be 62 a3 ed 3d a6 ea 83 3e
       -0.37426755 -0.21117795 0.116034284 0.2576496
000250 bf 97 ad 3e a4 d3 af 3e 40 07 91 bd 4a f8 b7 3b
       0.33904836 0.34341156 -0.07081461 0.005614315
000260 8d 0c d9 3c 42 6c a3 3e d9 b7 0d bf 53 61 91 be
       0.026495242 0.31918532 -0.55358654 -0.28394565
000270 fd a4 e4 bd ca 67 86 be be 79 15 3e a8 b9 bd 3e
       -0.111642815 -0.2625106 0.14597222 0.37055707
000280 ff 55 34 bf c7 bc 37 3e 88 92 f6 be 0f f0 bd be
       -0.7044372 0.17943107 -0.4815867 -0.37097213
000290 85 c3 4b 3f c5 b6 a8 be 22 6f 0a 3e 85 86 14 3f
       0.79595214 -0.32951942 0.13518956 0.5801776
0002a0 a8 46 25 bf 42 5c 40 be 9a 45 a7 3e 24 62 f6 be
       -0.6456094 -0.18785194 0.3267029 -0.4812175
0002b0 64 39 f4 be d9 a5 b5 3e 58 4f 50 be 9d e9 00 bf
       -0.47700036 0.35478094 -0.20342767 -0.50356466
0002c0 95 d1 75 3e 56 5d 81 3e 12 49 2a 3e f8 e4 53 3e
       0.2400573 0.25266522 0.16629437 0.20692813
0002d0 a4 e1 c7 3e c9 0d 74 3e fa e9 11 3f c9 c7 f9 3b
       0.39039338 0.23833384 0.56997645 0.007622693
0002e0 bd f6 e9 3a 0e 42 48 bf 8c 2e 64 3d c5 87 3b be
       0.0017850023 -0.7822579 0.055708453 -0.1831351
0002f0 12 23 c4 3e 07 97 a5 be 25 7b 00 3f 80 66 58 3e
       0.38308007 -0.32341787 0.50187904 0.2113285
000300 81 0a 3f 3e bf 1e 32 bf 96 12 f4 be 3e c3 0b bf
       0.1865635 -0.69578165 -0.4767043 -0.5459479
000310 7d ac d8 be 84 3f 90 3e 7f 9f 38 3e d3 a4 2f bf
       -0.42319098 0.2817346 0.18029593 -0.68610877
000320 2d c3 41 3e c7 8a 6e 3c a2 ac c0 be c8 7b bf 3d
       0.1892211 0.014559454 -0.37631708 0.09349781
000330 6e c7 d2 be 8c c7 08 bf 30 07 ab be e5 89 0b bf
       -0.41167778 -0.53429484 -0.3340392 -0.54507285
000340 52 55 be 3d 98 93 62 bf 37 98 4d be 9c 7a 09 bf
       0.09293617 -0.8850646 -0.20077597 -0.5370271
000350 96 b0 2e bf c4 14 4c bf c9 ef 2a be 64 3f 55 3d
       -0.682382 -0.79719186 -0.16693033 0.052062407
000360 47 f9 3e 3e ed 38 9a be 6a 3a 1d bf 07 d7 22 bf
       0.1864978 -0.30121556 -0.6141726 -0.63609356
000370 6e 75 fc be ba db e6 be 89 aa 02 bf f4 8d e0 3d
       -0.49308342 -0.45089513 -0.51041466 0.109645754
000380 c9 6e 86 3d 34 b7 42 bd 28 36 ca bc 5e 59 fb bd
       0.06564099 -0.047537997 -0.024684027 -0.12272905
000390 62 c3 41 3d b7 c2 80 be 34 62 22 3e 19 f3 a6 3d
       0.047305472 -0.25148556 0.15857774 0.08151836
0003a0 09 af 1c 3d 22 59 12 3f 13 dd 89 be 96 89 90 bc
       0.038252864 0.57167256 -0.2692648 -0.017643731
0003b0 20 12 d1 bd 7c b4 0c bd 81 e4 12 be a2 df 2c be
       -0.10208535 -0.03435181 -0.1434498 -0.16882184
0003c0 82 8e 4e 3f a5 ab a1 3c 12 22 fa be b2 7b e3 be
       0.806862 0.019735167 -0.4885412 -0.4443031
0003d0 9d 03 ca be 65 0a 8e be 50 4e 50 bd 85 59 3a 3f
       -0.39455882 -0.27742305 -0.050855935 0.72792846
0003e0 e9 a1 1e 3f e6 51 bb bd 1e 33 02 3e 04 03 48 be
       0.61965805 -0.0914648 0.12714812 -0.195324
0003f0 1b 2a a1 be 91 9b bb bd ea ee ec bd 95 bb 8a 3d
       -0.31477436 -0.09160531 -0.11569007 0.0677406

sequential_2/dense_8/MatMul f4 [7, 16]
000000 e8 dd 3e 3f 99 37 0a 3f 4a 4d 95 be e8 d0 ac bf
       0.7455735 0.53991085 -0.2916053 -1.3501253
000010 26 11 a1 3e 5b 11 94 bf 3d db 76 3f ea 54 36 3f
       0.31458396 -1.1567796 0.9642828 0.7122332
000020 34 b0 d1 3d 7b e4 1d bf 69 fe 06 be 3e bc 99 3e
       0.10238686 -0.6167676 -0.13182987 0.3002643
000030 b9 90 58 bf 60 1b ec be 4a 1b d3 be 9d 57 aa bf
       -0.8459583 -0.46114635 -0.41231757 -1.3307987
000040 c2 ec e2 bd ee 60 8b 3e b7 d1 14 3f e2 9d ea 3d
       -0.11080314 0.2722239 0.581325 0.11455895
000050 f1 b1 b2 3d 07 3f 73 bf 22 be 88 be 05 23 cc 3e
       0.08725346 -0.9501805 -0.2670756 0.39870468
000060 65 ed 46 bf af 56 1d 3e 06 0b 12 bf 2d 59 b4 3e
       -0.77705985 0.15365098 -0.5704807 0.35224286
000070 92 42 1a 3f 6c b0 c0 bd 0d 01 15 bf dd f8 55 be
       0.6025783 -0.0940865 -0.5820473 -0.20895715
000080 0d f9 08 bf 3a 66 8f bd 4e a7 84 be a1 6d 96 3e
       -0.5350502 -0.0700192 -0.25908893 0.29380515
000090 ce 62 5b bf 22 66 61 bf 7f 76 83 bf 35 58 3a 3f
       -0.8569764 -0.8804647 -1.0270537 0.72790843
0000a0 56 df a4 3c a9 e3 8c bf 38 d4 a8 3e e8 22 f5 3e
       0.020126026 -1.1006976 0.3297441 0.47878194
0000b0 49 d6 16 bf 48 55 63 be ed 6b e2 3e 68 30 78 bf
       -0.58920723 -0.22200501 0.44222966 -0.9694886
0000c0 ae b4 a8 3e f4 37 aa be fd 9e 19 be af f0 33 3e
       0.32950348 -0.33245814 -0.15002055 0.17572282
0000d0 f8 03 c3 bc cd 16 84 bd d3 0f 19 bf 54 b8 9a bc
       -0.023805603 -0.064496614 -0.5978977 -0.018886723
0000e0 2a da 01 3f 20 b0 c2 3e dc 5c 43 3e 4f c2 0d bf
       0.50723517 0.38024998 0.19078392 -0.55374616
0000f0 3a 98 a2 3e 8a a5 33 3f fe cf 97 bd 7a 98 db 3e
       0.31756765 0.7017447 -0.07412718 0.42889768
000100 0b e7 0e bf 18 8c 0a bf eb 74 36 3f 94 04 9e 3e
       -0.55821294 -0.54120016 0.7127215 0.30862868
000110 8b 5d ba 3d 09 77 1e bf d9 40 30 be f6 de 50 bf
       0.09099873 -0.61900383 -0.17212237 -0.8159021
000120 e2 06 3b bf de e6 a7 3e f4 d1 a6 be 22 2a d0 3e
       -0.7305738 0.32793325 -0.32582057 0.40657145
000130 97 b9 3d 3f fe 8d 04 3e 8a af 83 be 84 e9 ac 3e
       0.7411131 0.1294479 -0.25719863 0.33771908
000140 43 22 8d bf c3 95 22 3e 70 d4 c5 3e f6 3c 35 bf
       -1.1026081 0.15877442 0.3863864 -0.70796144
000150 11 2f bc bf 32 e1 68 3e b4 38 32 bf a8 96 06 3f
       -1.4701864 0.22742155 -0.6961777 0.52573633
000160 ae e7 bc be e4 13 25 bf 16 fd a4 3d 0d 1d 16 bf
       -0.36895508 -0.64483476 0.08056085 -0.5863808
000170 97 27 db 3e bf a9 1b bf e8 c6 26 3f ee 89 0c 3f
       0.42803642 -0.60805887 0.65147257 0.54897964
000180 93 62 26 bb ce c1 86 bf dc 11 a9 be c2 3d 5b bf
       -0.0025388345 -1.0527894 -0.33021438 -0.8564111
000190 a5 bf d7 bc 17 09 8c 3e ef 02 82 bf 12 e3 99 bf
       -0.0263365 0.27350685 -1.0157145 -1.2022421
0001a0 45 d9 18 3f 91 5a f9 3e 0e be a4 bf a7 d7 65 bf
       0.59706527 0.4870191 -1.28705 -0.89782184
0001b0 fb 26 1d 3e 5c 08 9f be 73 77 08 3f b1 53 1e 3f
       0.15346901 -0.31061065 0.53307265 0.6184645
