dummyData1/model.tflite (tflite, 6160 bytes, 6 tensors)

sequential/dense_1/BiasAdd/ReadVariableOp f4 [16]
0.087964185 0.40109 0.36496815 0.06546489 0.008683458 0.063625954 0.31182826 0.12572506
0.012216929 -0.2304034 0.14053904 0.4333977 0.21474138 -0.2131812 0.2256842 0.08759128
00000000: 9126 b43d ab5b cd3e 1bdd ba3e 7512 863d
00000010: 1045 0e3c 534e 823d f4a7 9f3e 12be 003e
00000020: 8429 483c deee 6bbe 77e9 0f3e 4ee6 dd3e
00000030: 2ae5 5b3e 2c4c 5abe c219 673e 0f63 b33d

sequential/dense_2/BiasAdd/ReadVariableOp f4 [4]
-0.18680085 -0.060277123 -0.16710688 0.31746107
00000000: b948 3fbe 25e5 76bd 111e 2bbe 428a a23e

sequential/dense/BiasAdd/ReadVariableOp f4 [32]
0.22800595 0.29470348 -0.19177881 0.0 0.11665367 0.0 0.26427016 -0.25765404
0.34704044 0.0 0.0 -0.21269603 0.05038688 0.22115637 0.0 0.0
0.0 -0.006815252 -0.24838777 -0.08056811 0.16954601 0.06297841 0.0 -0.13320994
0.0 -0.005458084 -0.17122611 0.0 0.075406246 0.0 0.25018445 -0.04133105
00000000: 647a 693e 60e3 963e aa61 44be 0000 0000
00000010: 1fe8 ee3d 0000 0000 6b4e 873e 3beb 83be
00000020: 49af b13e 0000 0000 0000 0000 fdcc 59be
00000030: 7962 4e3d d176 623e 0000 0000 0000 0000
00000040: 0000 0000 7a52 dfbb 5d59 7ebe e500 a5bd
00000050: 789d 2d3e d3fa 803d 0000 0000 3068 08be
00000060: 0000 0000 bad9 b2bb e655 2fbe 0000 0000
00000070: 976e 9a3d 0000 0000 2d18 803e bf4a 29bd

sequential/dense/MatMul f4 [32, 12]
0.48892125 -0.01637168 -0.9312503 0.26757112 -0.2051351 -0.3652283 -0.02438543 0.7297848
0.34937617 -0.67293453 -0.093467586 0.49012077 0.1426899 0.29014462 -0.9813821 0.1526208
0.12803872 0.31232616 0.78755355 -0.6048704 -0.12556843 -0.5307665 0.48574677 0.4114806
0.43468606 0.2616769 0.87018585 0.25010172 0.55793124 0.5206893 0.66989565 -0.6921122
-0.14425999 0.0610569 0.6352307 -0.30365813 0.06948134 -0.061243713 0.32467327 -0.28247
-0.0035304725 0.16236863 0.28814307 -0.015324146 -0.086678475 -0.21068452 -0.36053383 -0.3033774
0.2794925 -0.08180468 -0.2674465 -0.1678024 0.09599306 0.70328766 0.66289747 -0.6046806
-0.39320868 -0.4017822 0.66628337 0.007991619 0.06139821 0.16413817 0.20820448 0.24388853
-0.10891268 -0.35174727 -0.36822826 -0.03736162 -0.27788848 0.057985187 0.34170195 -0.15258497
-0.11642635 -0.49720523 -0.77223015 -0.23865913 -0.33001006 -0.14181006 0.02677114 0.6885733
0.13882391 -0.31405574 0.045284245 0.42740974 0.50024 0.54461634 0.7558507 0.70331424
0.8409823 -0.21038815 -0.19188964 0.34427816 0.23773998 -0.055011813 -0.34306985 -0.5687454
-0.72127765 -0.22439355 -0.88400275 -0.8190518 -0.79358023 0.032760628 0.077631205 -0.06757658
0.61557007 0.24078916 0.4416558 0.49947375 -0.33960286 -0.04756877 0.14735028 0.17429063
0.14291188 -0.04319513 0.045545906 -0.05748695 -0.36048752 0.14518687 -0.090537876 0.14143875
0.038670808 0.15427998 -0.14573865 0.14137372 -0.33468485 -0.34869495 -0.34332228 0.1132915
0.10337755 -0.0627802 -0.20355743 0.13966808 0.2028604 0.25831556 1.066828 0.16949022
0.5233236 -0.22541292 -0.128459 -0.2767753 -0.3005606 0.7845722 0.25004306 -0.26201153
-0.13601334 -0.5266323 0.67552626 0.10020836 -0.22477345 0.10576672 0.2500622 -0.2121637
0.2561391 0.5164118 0.05316576 -0.13574888 -0.6725706 -0.9661011 -0.3164271 -0.86824983
-1.0012116 -0.09830583 -0.13259742 0.8016107 0.2126359 0.22567093 0.10499019 0.45025274
-0.1723266 -0.2980762 -0.2914435 -0.058664948 0.16997615 0.07626408 -0.26223463 -0.111611426
-0.10782403 -0.3429878 -0.1905061 -0.21687782 -0.03656882 -0.095291615 -0.3380115 -0.3121168
0.04189235 -0.17068708 -0.26487923 0.043759823 -0.34795284 0.07352248 -0.29986814 -0.106258035
0.016812205 0.0075950325 0.04375136 -0.024387509 0.32033727 -0.3637951 0.20227501 -0.14279947
0.12961784 -0.011070639 -0.025481164 -0.35222083 -0.053358387 -0.061059088 -0.31353986 0.23481378
0.19643171 0.13558723 -0.25102353 -0.03187805 -0.2742065 -0.13648684 0.30210096 0.24248277
0.012320331 0.3002394 1.1243733 0.641468 0.6231834 -0.050177492 0.100423425 -0.26167515
0.17711158 0.4841524 -0.4256785 -0.018524332 0.394118 0.40278232 0.2702466 0.43830085
0.56766504 -0.58351487 -0.39326254 0.67574555 0.28935403 -0.075089246 -0.06719862 0.08481951
-0.56917536 -0.0028024218 -0.17334361 -0.07374715 -0.09975423 0.023294782 0.36774844 -0.3241945
-0.37948698 0.59482116 0.75596243 0.3922259 -0.5001453 -0.49476004 0.24885389 -0.3836843
00000000: e353 fa3e e71d 86bc 6b66 6ebf 15ff 883e
00000010: f00e 52be 34ff babe f4c3 c7bc 2dd3 3a3f
00000020: 6fe1 b23e 7045 2cbf ef6b bfbd 1cf1 fa3e
00000030: 4d1d 123e d68d 943e db3b 7bbf a148 1c3e
00000040: 951c 033e 37e9 9f3e 1c9d 493f c9d8 1abf
00000050: 0395 00be 50e0 07bf cdb3 f83e 96ad d23e
00000060: 2c8f de3e 84fa 853e 80c4 5e3f 550d 803e
00000070: 95d4 0e3f e54b 053f 487e 2b3f 442e 31bf
00000080: e4b8 13be cd16 7a3d 7b9e 223f 1479 9bbe
00000090: 3c4c 8e3d b0da 7abd 933b a63e e89f 90be
000000a0: 805f 67bb f643 263e 7d87 933e 2012 7bbc
000000b0: 7c84 b1bd afbd 57be e497 b8be 4854 9bbe
000000c0: a419 8f3e 3689 a7bd bfee 88be 64d4 2bbe
000000d0: 0298 c43d a90a 343f a6b3 293f 59cc 1abf
000000e0: a652 c9be 66b6 cdbe 8c91 2a3f 48ef 023c
000000f0: b07c 7b3d d613 283e 8e33 553e eabd 793e
00000100: 9c0d dfbd 3818 b4be 6a88 bcbe 8008 19bd
00000110: 6647 8ebe e081 6d3d 8ff3 ae3e 3c3f 1cbe
00000120: f070 eebd af91 febe e0b0 45bf 0f63 74be
00000130: 14f7 a8be a836 11be 264f db3c 5746 303f
00000140: db27 0e3e eacb a0be f97b 393d 73d5 da3e
00000150: bb0f 003f fa6b 0b3f 6e7f 413f 670c 343f
00000160: 9e4a 573f fe6f 57be b87e 44be 3a45 b03e
00000170: 1c72 733e 1154 61bd daa6 afbe 4c99 11bf
00000180: a7a5 38bf 6cc7 65be 014e 62bf 61ad 51bf
00000190: 1328 4bbf 0230 063d 1cfd 9e3d 9765 8abd
000001a0: 0096 1d3f 6f91 763e b620 e23e 06bb ff3e
000001b0: 6de0 adbe 78d7 42bd fee2 163e 3e79 323e
000001c0: 7e57 123e 60ed 30bd 588e 3a3d 7077 6bbd
000001d0: d291 b8be deab 143e ec6b b9bd 52d5 103e
000001e0: 4865 1e3d 92fb 1d3e 833c 15be 46c4 103e
000001f0: d05b abbe 2588 b2be f0c7 afbe 6005 e83d
00000200: 9cb7 d33d e892 80bd 5c71 50be 2605 0f3e
00000210: a3ba 4f3e f041 843e d28d 883f d88e 2d3e
00000220: 89f8 053f a5d2 66be c28a 03be 7eb5 8dbe
00000230: 14e3 99be b9d9 483f a505 803e 6026 86be
00000240: 1547 0bbe 60d1 06bf 4aef 2c3f 0a3a cd3d
00000250: 032b 66be 399c d83d 2708 803e 7141 59be
00000260: aa24 833e 9033 043f 57c4 593d c101 0bbe
00000270: 962d 2cbf 6752 77bf bc02 a2be 9f45 5ebf
00000280: b427 80bf 9154 c9bd 9ec7 07be 5c36 4d3f
00000290: 3abd 593e 4816 673e 1905 d73d 8787 e63e
000002a0: 6276 30be 729d 98be 1538 95be a84a 70bd
000002b0: 3a0e 2e3e 5830 9c3d 9e43 86be 8894 e4bd
000002c0: d8d2 dcbd 199c afbe 0814 43be 3815 5ebe
000002d0: 30c9 15bd 4028 c3bd d80f adbe c6cd 9fbe
000002e0: 5097 2b3d 98c8 2ebe 409e 87be 803d 333d
000002f0: e026 b2be f492 963d 5188 99be d09d d9bd
00000300: c0b9 893c c0df f83b a034 333d 50c8 c7bc
00000310: 3f03 a43e 5a43 babe 2e21 4f3e 063a 12be
00000320: 8aba 043e a061 35bc e0bd d0bc 4a56 b4be
00000330: 538e 5abd 1819 7abd 4c88 a0be 0673 703e
00000340: 6525 493e 61d7 0a3e 2886 80be 8f92 02bd
00000350: cb64 8cbe 35c3 0bbe faac 9a3e 674d 783e
00000360: 37db 493c fbb8 993e 77eb 8f3f 3f37 243f
00000370: f388 1f3f ea86 4dbd ccaa cd3d 49fa 85be
00000380: bd5c 353e d3e2 f73e 88f2 d9be 57c0 97bc
00000390: d6c9 c93e 7c39 ce3e c35d 8a3e f868 e03e
000003a0: 7f52 113f 3b61 15bf b559 c9be a9fd 2c3f
000003b0: 3626 943e 64c8 99bd 6e9f 89bd dab5 ad3d
000003c0: 7ab5 11bf d6a8 37bb fd80 31be bf08 97bd
000003d0: f24b ccbd b3d4 be3c 8649 bc3e d2fc a5be
000003e0: 1e4c c2be 3346 183f c186 413f d5d1 c83e
000003f0: 8609 00bf 3051 fdbe 8ed3 7e3e 4572 c4be

sequential/dense_1/MatMul f4 [16, 32]
-0.72513276 0.47547892 0.5871521 0.19175544 0.4464231 0.30198446 -0.6877516 -0.014733169
0.050705593 -0.17221075 0.3176091 0.52674127 0.4971682 -0.6517673 -0.352421 -0.22151574
0.024246484 -0.35922012 0.2046337 -0.3408685 0.64260566 -0.20516212 0.06974462 0.41000238
-0.07953262 0.009398669 0.18428242 0.26502547 -0.26762462 0.33816794 -0.5983105 0.099662594
0.805583 0.84404683 0.07895527 0.23661694 0.3821946 -0.027624816 0.93028516 0.037151854
0.56623745 0.058828652 -0.2592386 -0.40544984 -0.02490673 0.6070324 0.15285543 -0.32366604
-0.07583043 -0.26161838 -0.37911004 -0.08932362 0.1440579 -0.031164147 0.18412915 -0.28108788
-0.11997032 0.21750882 -0.14847663 -0.34381047 0.06464996 -0.2466409 0.9952852 0.15891829
-0.67529666 0.723882 0.14700252 0.15372273 0.8427487 0.21322933 0.28484583 -0.62630415
0.90527904 -0.29673684 -0.14657907 -0.1955398 0.15842997 -0.60583305 -0.29686016 0.17498025
0.2752324 0.20793757 -0.19642316 -1.1512824 0.50923353 -0.50815797 -0.19517438 0.2097012
-0.046108574 0.015549064 -0.8984914 0.0121228695 -0.90053195 -0.31497705 -0.030425424 0.27319336
0.37735397 -0.8881067 -0.54845375 0.102831304 -0.7506687 -0.15679681 0.5657435 -0.28011784
0.44461307 -0.13622999 -0.070510834 -0.749472 0.2967194 0.76202613 -0.04409647 -0.025296211
0.22322538 -0.117269814 -0.5442188 0.15628041 0.2435529 0.57698303 -0.32004142 0.12642859
0.34598383 -0.058840275 -0.55548924 -0.07444221 -0.028178794 0.31193706 0.37039483 0.03136071
0.24923249 -0.53880584 -0.12825349 0.1478717 -0.85904366 0.12654448 0.5584573 -0.123927265
0.70809406 0.02986154 0.018526226 -0.2778023 0.37594116 0.71675 0.00028795004 -0.050744206
0.027656436 -0.2431593 -0.41457424 0.1496059 0.29965487 0.8839745 0.32757178 0.18731636
-0.2152416 0.2812494 -0.08090051 0.17244259 -0.060240142 -0.3243446 0.24478191 0.25495005
0.87696 0.6659222 0.011158873 0.26680294 0.24231069 0.3431377 0.22443068 0.233007
-0.73706543 -0.1909903 -0.008718759 -0.54504806 -0.78378725 -0.39357364 0.051748067 -0.06514132
0.041982383 -0.21696657 0.15114644 0.03872908 -0.8840185 -0.45464146 0.03461218 -0.75268704
0.009441912 0.02677548 0.20980434 0.2646995 0.49517375 0.2925351 0.6497532 -0.23444742
-0.36567014 1.1275526 0.52889484 0.2829425 0.86408585 0.008943826 -0.5436636 -0.044878595
0.12891392 -0.2888298 -0.3085735 0.21147673 0.401702 -0.52260107 -0.04806754 0.072255045
-0.32112297 -0.10033465 0.30773866 -1.0959951 0.6234415 -0.8844891 0.16955236 -0.08354856
0.18385795 0.12543765 -0.64438754 0.16909769 -1.2759507 -0.059473157 -0.3156461 -0.15119296
-0.20509736 -1.2078712 -0.22200942 0.15182671 -0.783169 0.2604685 0.5073601 0.35400245
0.32628796 -0.26721716 -0.32191795 0.56200564 0.76779246 0.52795804 -0.25087345 -0.31206918
0.19516626 -0.13359663 0.26679367 0.008722018 0.5632318 1.1990436 -0.08759236 0.6374725
-0.032315165 -0.25069997 -0.12221606 -0.2001069 0.061142616 0.22487196 -0.1810547 0.061506618
00000000: 4da2 39bf f971 f33e 9a4f 163f 8a5b 443e
00000010: 9291 e43e b59d 9a3e 7d10 30bf 6463 71bc
00000020: abb0 4f3d 0458 30be a99d a23e 84d8 063f
00000030: d58c fe3e 39da 26bf 8670 b4be 06d5 62be
00000040: 90a0 c63c b3eb b7be 7f8b 513e 5186 aebe
00000050: ce81 243f 0516 52be 44d6 8e3d d5eb d13e
00000060: 00e2 a2bd e0fc 193c 88b4 3c3e 6bb1 873e
00000070: 1806 89be 5924 ad3e e02a 19bf e71b cc3d
00000080: b03a 4e3f 7413 583f 4db3 a13d b64b 723e
00000090: 03af c33e 704d e2bc 2b27 6e3f 8b2c 183d
000000a0: f0f4 103f 50f6 703d ecba 84be 1f97 cfbe
000000b0: 3309 ccbc 7a66 1b3f 2286 1c3e 8eb7 a5be
000000c0: fc4c 9bbd d8f2 85be b61a c2be 4def b6bd
000000d0: ea83 133e f44b ffbc 5a8c 3c3e c0ea 8fbe
000000e0: 00b3 f5bd a2ba 5e3e 420a 18be ed07 b0be
000000f0: 3367 843d 6f8f 7cbe 03cb 7e3f 7abb 223e
00000100: 3ee0 2cbf 5550 393f d487 163e 7e69 1d3e
00000110: 61be 573f ca58 5a3e 50d7 913e 7855 20bf
00000120: 5ec0 673f e4ed 97be d318 16be 963b 48be
00000130: 773b 223e e017 1bbf 0efe 97be 062e 333e
00000140: 43eb 8c3e 96ed 543e 2723 49be 395d 93bf
00000150: 215d 023f a416 02bf cbdb 47be e9bb 563e
00000160: 58dc 3cbd 80c1 7e3c 8803 66bf 009f 463c
00000170: 4389 66bf ac44 a1be bd3e f9bc 00e0 8b3e
00000180: 8a34 c13e f65a 63bf 7767 0cbf 3899 d23d
00000190: d32b 40bf 588f 20be 91d4 103f 9b6b 8fbe
000001a0: 53a4 e33e e07f 0bbe fc67 90bd 66dd 3fbf
000001b0: 9beb 973e 2514 433f 809e 34bd 003a cfbc
000001c0: 3295 643e 282b f0bd ec51 0bbf f907 203e
000001d0: ee65 793e 29b5 133f 78dc a3be 7f76 013e
000001e0: cb24 b13e 8002 71bd 8b34 0ebf 2875 98bd
000001f0: 37d7 e6bc 37b6 9f3e 64a4 bd3e 1674 003d
00000200: cd36 7f3e 2eef 09bf e254 03be ae6b 173e
00000210: 49ea 5bbf e094 013e 0ff7 0e3f 94cd fdbd
00000220: a745 353f 30a0 f43c 50c4 973c 1a3c 8ebe
00000230: 5c7b c03e ee7c 373f 00f8 9639 28d9 4fbd
00000240: c08f e23c c0fe 78be 1343 d4be 4a32 193e
00000250: 5d6c 993e 274c 623f 7db7 a73e dccf 3f3e
00000260: 4b68 5cbe ecff 8f3e 2baf a5bd ca94 303e
00000270: 5ebe 76bd 7f10 a6be 1ca8 7a3e d088 823e
00000280: 7380 603f e179 2a3f b5d3 363c 659a 883e
00000290: 4b20 783e bfaf af3e 28d1 653e 6399 6e3e
000002a0: 52b0 3cbf f692 43be 20d9 0ebc 4588 0bbf
000002b0: 48a6 48bf 7c82 c9be c8f5 533d d068 85bd
000002c0: b8f5 2b3d 7c2c 5ebe 22c6 1a3e 62a2 1e3d
000002d0: 094f 62bf c4c6 e8be 80c5 0d3d 19b0 40bf
000002e0: 40b2 1a3c 4058 db3c f3d6 563e b186 873e
000002f0: 6a87 fd3e 29c7 953e 3a56 263f fc12 70be
00000300: 1e39 bbbe a553 903f a765 073f d7dd 903e
00000310: bb34 5d3f 2089 123c 8a2d 0bbf 9ed2 37bd
00000320: 0302 043e 80e1 93be 59fd 9dbe 5b8d 583e
00000330: e2ab cd3e 2fc9 05bf 78e2 44bd 74fa 933d
00000340: 3b6a a4be 417c cdbd ec8f 9d3e 9149 8cbf
00000350: dd99 1f3f e16d 62bf 229f 2d3e 821b abbd
00000360: 4245 3c3e ba72 003e 95f6 24bf f227 2d3e
00000370: 5a52 a3bf 209a 73bd 5e9c a1be 54d2 1abe
00000380: 0b05 52be 869b 9abf 7056 63be 7678 1b3e
00000390: c37d 48bf 215c 853e 5ae2 013f cf3f b53e
000003a0: 370f a73e b0d0 88be 6ed2 a4be 9adf 0f3f
000003b0: 0c8e 443f 4228 073f 7c72 80be 88c7 9fbe
000003c0: aad9 473e 8ecd 08be 2e99 883e cce6 0e3c
000003d0: f62f 103f 437a 993f a063 b3bd 6631 233f
000003e0: e85c 04bd bf5b 80be 6a4c fabd d3e8 4cbe
000003f0: ae70 7a3d d644 663e 6766 39be 5dee 7b3d

sequential/dense_2/MatMul f4 [4, 16]
-1.119703 0.5884733 0.010680724 0.8345259 0.74002266 -0.6752261 -0.94683725 0.7348418
-0.8875801 -0.39893168 0.3740619 0.6433988 0.17995381 -0.27852714 -0.78441906 0.9794902
-0.78358936 0.6969629 -0.61385393 -1.0102158 -1.0206437 1.0895646 -0.22856551 -1.0783354
0.7009498 -0.58540446 0.7789509 -0.7063247 -1.2352605 0.6602137 0.49848583 0.93394786
0.565953 -1.5027144 -0.7109196 -0.6911072 -0.2555666 -0.7283388 -0.16943245 0.75908947
0.45610338 0.7991615 -0.90861344 -0.405834 0.58410054 1.1268835 0.4367865 -0.6301872
0.8159301 0.33998436 0.9474643 -0.7460947 -0.4749003 -0.5442977 0.7118287 -0.004417405
-0.935336 -1.3181336 -1.0629884 1.0419725 0.25253323 -0.6811996 0.40642577 -0.9818487
00000000: 6e52 8fbf 30a6 163f 34fe 2e3c 7da3 553f
00000010: 2072 3d3f 9edb 2cbf ed63 72bf 981e 3c3f
00000020: 7338 63bf c640 ccbe 0b85 bf3e c9b5 243f
00000030: d045 383e 1c9b 8ebe b0cf 48bf dfbf 7a3f
00000040: 5099 48bf 296c 323f 8825 1dbf c04e 81bf
00000050: 74a4 82bf da76 8b3f 140d 6abe e506 8abf
00000060: 7271 333f 11dd 15bf 5469 473f b2d1 34bf
00000070: 041d 9ebf c403 293f 8939 ff3e 3517 6f3f
00000080: 4ce2 103f f258 c0bf d4fe 35bf 67ec 30bf
00000090: a0d9 82be 6974 3abf b37f 2dbe b053 423f
000000a0: 6286 e93e d995 4c3f e49a 68bf 79c9 cfbe
000000b0: 9d87 153f b83d 903f 7ba2 df3e f353 21bf
000000c0: cce0 503f 6e12 ae3e 058d 723f 1000 3fbf
000000d0: 2226 f3be 1857 0bbf 683a 363f e1bf 90bb
000000e0: 2e72 6fbf 9ab8 a8bf 0110 88bf 5b5f 853f
000000f0: 094c 813e 1963 2ebf 0a17 d03e 705a 7bbf
